…
r(dls,\n                  nn.CrossEntropyLoss(), \n                  torch.optim.Adam, \n                  get_model_conv(),\n                  callbacks=[])\n\n\ntrainer.summarize_model()\n\n===================================================================================================================\nLayer (type (var_name))                  Input Shape               Output Shape              Kernel Shape\n===================================================================================================================\nSequential (Sequential)                  [500, 1, 28, 28]          [500, 10]                 --\n├─Sequential (0)                         [500, 1, 28, 28]          [500, 8, 14, 14]          --\n│    └─Conv2d (0)                        [500, 1, 28, 28]          [500, 8, 14, 14]          [3, 3]\n│    └─ReLU (1)                          [500, 8, 14, 14]          [500, 8, 14, 14]          --\n├─Sequential (1)                         [500, 8, 14, 14]          [500, 16, 7, 7]           --\n│    └─Conv2d (0)                        [500, 8, 14, 14]          [500, 16, 7, 7]           [3, 3]\n│    └─ReLU (1)                          [500, 16, 7, 7]           [500, 16, 7, 7]           --\n├─Sequential (2)                         [500, 16, 7, 7]           [500, 32, 4, 4]           --\n│    └─Conv2d (0)                        [500, 16, 7, 7]           [500, 32, 4, 4]           [3, 3]\n│    └─ReLU (1)                          [500, 32, 4, 4]           [500, 32, 4, 4]           --\n├─Sequential (3)                         [500, 32, 4, 4]           [500, 64, 2, 2]           --\n│    └─Conv2d (0)                        [500, 32, 4, 4]           [500, 64, 2, 2]           [3, 3]\n│    └─ReLU (1)                          [500, 64, 2, 2]           [500, 64, 2, 2]           --\n├─Sequential (4)                         [500, 64, 2, 2]           [500, 10, 1, 1]           --\n│    └─Conv2d (0)                        [500, 64, 2, 2]           [500, 10, 1, 1]           [3, 3]\n├─Flatten (5)                            [500, 10, 1, 1]           [500, 10]                 --\n===================================================================================================================\nTotal params: 30,154\nTrainable params: 30,154\nNon-trainable params: 0\nTotal mult-adds (M): 113.45\n===================================================================================================================\nInput size (MB): 1.57\nForward/backward pass size (MB): 12.52\nParams size (MB): 0.12\nEstimated Total Size (MB): 14.21\n==================================================================================================================="
…
